MLP-app/D:/Downloads/dataMLP/MLP_dress.pth (torch, 817568 bytes, 4 tensors)

weight f4 [256, 784]
00000000: dfaa c6bc cdd1 d0bc 238d e13b fedc 6d3b
00000010: 0235 46bb 4b1c 05bd 64ae 813c 8dc1 0cbd
00000020: 3402 d7bc e670 e6bc 7400 dcbb 9813 8a3c
00000030: e52c b1b9 73d7 09bc ed0a b33c 1700 f7bc
00000040: 50db e73c 794c 46bc 2dcb 09bc e733 77bc
00000050: e9a0 be3b a143 d2bb 34fa 44bc 0b58 30bc
00000060: 1879 a1bc 0922 f73c 294b e53c 087a 073d
00000070: c6cd d83c 504c 38bc 7d54 09bd 0deb 12bd
00000080: b4af 6fbb f43e 3a38 039d 6f3b f75d 063d
00000090: a91d d73c 07a9 913c 04dc dfbb deda b33c
000000a0: 3ef2 0abd 6475 baba be4d 88bb 43e4 083d
000000b0: 1a3d f53c 2c5a e9bc c39c 61bc 8919 d03c
000000c0: d5e7 e4ba 8cdf 12bd 96ad 783c edd7 a4bc
000000d0: a693 aa3c ecd9 0e3b a6b7 833c 6610 ddbc
000000e0: 0245 5dbc e2ef 53bc d5d6 c3bc cc11 4fbb
000000f0: 9823 c83a 9445 023c d26e 583c 4bdf fd3c
00000100: 35e3 d6bc 7407 dcbc 2b90 cabb 656b f73c
00000110: 0777 00bd 2ed3 3cba bb0d 3b3c d436 f0bc
00000120: 8113 073d bffa 53bc f628 843a f887 0e3d
00000130: 54e3 81bc 7841 90bc 4c3e 22bc 0ec9 7d3c
00000140: b9fb a23b 22e3 11bc 2bfd 9bbc cd80 b0bc
00000150: 4ddd a53b da3f 0a3b ed4e 023d 3ade 773b
00000160: 9709 013d bc79 0e3d 9709 03bc 5ccb cc3c
00000170: fa72 ffbc 8c9d ddbc ca58 00bc a97f 383b
00000180: af1b 69bb 5f77 5b3c dcac a3bc b488 a13c
00000190: 4d30 16bb f609 9a3b 5309 97bc 3dba 74bc
000001a0: 6610 ad3c aeb8 0f3d 6a46 d93c 1b80 c6b9
000001b0: d44e 89bc 669a d93c 10ff d5bc 565f e33c
000001c0: c828 033c 3df4 a2bc c1a4 933a d193 b43c
000001d0: 84fa 023c 5c8a ff3c 188a 13bd 471b cabc
000001e0: 91ff 12ba 9973 edbc 0b1a cdbc efec 923c
000001f0: 1527 9b3b dcc3 fdbc 866f 6ebc e1e5 08bd
00000200: 75e2 6fbb 40ca d8bc 419b 0a3c 915c c2bc
00000210: e649 e0bc fe02 38bc a404 7e3c 62f6 54bb
00000220: e3b9 71bc f35e dbba 1660 4bbc 7522 c93c
00000230: 5b7c 8ebc 6496 b43c 7efb 003d bad7 8bbc
00000240: 31dc 63bc c389 963c c765 88bb 5a8d 3c3c
00000250: a702 ba39 bf44 f13c 2de0 b9ba fceb e4bc
00000260: f333 9bbc 961e 9c3c 5c8e 38bc 1f73 0abd
00000270: 28f8 9a3c 615b 783c a09e 8a3c e23d 723c
00000280: 4c1f e2bc 37df 48ba 4977 eabc d3a3 c33c
00000290: 3a3e b9bc 65de 863a e11f 39bb 87af a5bc
000002a0: 5924 073d 07ee b93c 1031 863b 0a08 7fbc
000002b0: 8e02 803c 1841 553c 7eb0 08bd 3101 1b3c
000002c0: f6fd 9c3c 7037 b73a 70bc ca3c dd3a c93c
000002d0: 7177 143c 3ff1 34bd 2a4d 2abc a181 98bc
000002e0: 7920 ffbc 3163 34bd f530 16bd d468 ce3c
000002f0: c146 393c 31e7 9f3c e833 b6bc 1165 d7bb
00000300: d56e e53c c430 a0bc a2b8 93bc 03df 153c
00000310: 46f7 b7bc ffb0 b93a 5986 423a 89e1 123b
00000320: e5d4 04bd 8ac6 143c 5fce aabc f059 16bd
00000330: ae25 ad3c 4a3e 05bd efd5 203c a8e2 3a3c
00000340: 15fb f8bb f48d 4dbc 7ebe 5cba b9a2 47bd
00000350: b68a 3fbd fadc 2abd bf0f ccbc 4e47 913b
00000360: f2ef c8bc 5974 29bc 2b74 b7bc c3df dfbc
00000370: a65c d93c defb 313a f5b3 61bc b243 1f3c
00000380: 1f58 07bd 9f2e d63c 75d4 9a3b ae71 f23c
00000390: e78b 253c fc71 04bd 0489 6e3a 93b5 14bb
000003a0: f029 83bc eeb8 12bc 57c4 29bd 09b6 9cbc
000003b0: 70b9 1dbd ec44 e0bc ac98 ee3a c6fa ebbb
000003c0: 7f39 41bd 3fbe 17bd 9318 1bbd 9d95 bdbc
000003d0: a1b8 7a3c fbc9 03bd 0789 64bb fd1b ac3c
000003e0: b939 ea3c 0f19 3ebc 8abb a8bc 20d0 c33c
000003f0: 70fe 70bc f38a f4b9 7366 0cbd fd20 c53c
-0.0242514 -0.025490666 0.00688328 0.0036295052 -0.0030243997 -0.032497685 0.015830226 -0.034364272
-0.026246168 -0.028130006 -0.006713921 0.016855046 -0.0003379352 -0.0084131835 0.021855796 -0.03015141
0.028302819 -0.012103193 -0.008410257 -0.015088058 0.005817522 -0.0064167534 -0.012022544 -0.010763179
-0.019711062 0.030167596 0.02798994 0.033075362 0.026465308 -0.011248663 -0.03352784 -0.035868693
-0.0036573233 4.4404485e-05 0.0036562092 0.032804456 0.02625926 0.017780794 -0.006831648 0.02195495
-0.033922426 -0.0014225659 -0.004159658 0.033420812 0.029936362 -0.02848538 -0.013770285 0.025402801
-0.0017464111 -0.035857722 0.015178105 -0.020122493 0.020822357 0.0021797372 0.016078781 -0.026985358
-0.013505222 -0.0129356105 -0.02390615 -0.00315963 0.0015269397 0.007951159 0.013210015 0.030990263
-0.026231388 -0.026859023 -0.006181737 0.030202577 -0.031363513 -0.0007203099 0.011416848 -0.02932302
0.032977585 -0.0129382005 0.0010083008 0.03479764 -0.015855469 -0.017609343 -0.009902548 0.01548983
0.0049738553 -0.00890425 -0.019041618 -0.021545792 0.0050617815 0.0021095187 0.03181355 0.0037821666
0.031503286 0.034784064 -0.007997892 0.024999313 -0.031182755 -0.027052663 -0.007833669 0.0028152263
-0.003556948 0.0133951595 -0.019979887 0.019718505 -0.0022916973 0.0047008945 -0.018437063 -0.014936981
0.021125983 0.035088234 0.026522834 -0.0003786095 -0.016761221 0.02656288 -0.0261226 0.02775542
0.0080053285 -0.019891853 0.001126431 0.02204314 0.007994298 0.031193905 -0.03602037 -0.02467121
-0.00056075404 -0.028985785 -0.025036832 0.017935244 0.0047348836 -0.030977182 -0.014552956 -0.033422355
-0.0036603485 -0.026463628 0.008459867 -0.02372578 -0.027378988 -0.011231182 0.015504036 -0.0032495488
-0.0147537915 -0.0016736671 -0.012413045 0.024552563 -0.017393282 0.022044368 0.03148984 -0.01707064
-0.013907478 0.018376237 -0.0041625234 0.01150831 0.0003547866 0.029451726 -0.001418119 -0.027944557
-0.01894567 0.019057553 -0.01126441 -0.033801194 0.018917158 0.015158505 0.016921341 0.014785262
-0.027602814 -0.0007662656 -0.028621333 0.023881828 -0.02261268 0.0010289667 -0.002824776 -0.0202253
0.03299365 0.022696508 0.004095204 -0.0155658815 0.015626218 0.013016008 -0.03337144 0.009460733
0.019164067 0.0013978314 0.024748057 0.024564201 0.00906168 -0.044175383 -0.010394374 -0.0186165
-0.031143414 -0.04403991 -0.036667783 0.02519647 0.011308373 0.01951942 -0.022241548 -0.0065733274
0.02800695 -0.019554503 -0.018032376 0.009147408 -0.022456776 0.0014167129 0.0007420532 0.0022412261
-0.032429595 0.0090805385 -0.020850359 -0.036706865 0.021136131 -0.032530107 0.009816631 0.011406578
-0.0075982907 -0.012546051 -0.00084207195 -0.04873917 -0.046763144 -0.041714646 -0.024909852 0.004433549
-0.024528477 -0.010342681 -0.02239426 -0.027328378 0.026533436 0.00067895453 -0.013775815 0.00972073
-0.033043023 0.026145278 0.004725034 0.029595222 0.010104156 -0.032335266 0.00090993964 -0.0022691234
-0.016011208 -0.0089552235 -0.04144701 -0.01912977 -0.038506925 -0.027376615 0.0018203459 -0.0072015254
-0.047173973 -0.037046667 -0.037865233 -0.02314263 0.015302808 -0.032175045 -0.0034871714 0.02100944
0.028591977 -0.011602654 -0.020597238 0.023902953 -0.0147091 -0.00046642832 -0.03427739 0.024063582

bias f4 [256]
00000000: 3a4c e33c 8abe cb3c e619 84bc c488 f5bc
00000010: 9219 b4bb 18f1 f53c aef4 d43c 18a7 febc
00000020: 666f 97bc 2097 0a3d 25be df3b 11c6 bebc
00000030: 39af f23b c46e 0ebc b7d4 98bc 42e8 b63c
00000040: cc5e 02bd 8524 a33a 0519 0b3c 32dd bdbc
00000050: cf21 a13c 5838 87bc 516d edbc aabe 98bc
00000060: d4d9 3b3c 4e6d 26bc c027 debc 533c 303c
00000070: fa18 453b 4faf acbc d4f7 ab3c b64f 39bc
00000080: f2cf ec3c 772f 9b3c 765d 9f3c a14f 013d
00000090: c465 afbb 9045 013c 9f41 0a3c 6c16 953c
000000a0: a233 acbb 77b2 b43c dbd9 a3bb e082 ab3c
000000b0: 9004 fd3c 1d6a cbbc eb94 9abc 085d dc3c
000000c0: fd43 b6bc b46c 46bc ef79 b73c 031f 733c
000000d0: b8ce 04bd 74fb 043d ebce 763c 78af e1bc
000000e0: 9ff0 8d39 b25d 163d 7547 e3bc 7dad 8e3c
000000f0: 77a3 263c 858f bb3b 976f 043d a267 513c
00000100: fa03 f7bc 4d38 0f3d 6831 05bc af4f 5d3a
00000110: 7c47 dbbb 4162 883c 3ae6 343b edd5 32bc
00000120: 9c01 a43c e5cf 09bd e2c3 f3bc 8a8c fc3c
00000130: bc6f a83c 7580 cb3c 14b5 f93c 8571 86bc
00000140: f976 ceba 4fee 2cbb 9367 033c 83cb c6bb
00000150: 5e67 803c 638c 32bc 22ce b73c 4475 273b
00000160: 8c85 61bc 38dc cbbc 9d9b 9cbc 9c09 30bc
00000170: 586d fcbc 4c6e a939 5c4c 0abc f37d ee3c
00000180: 2599 95bc f972 4cbc 75ce a03b 2180 1cbc
00000190: ba91 04bd 24fc 6bbc d434 f63c 9cf4 abbc
000001a0: 6b32 ca3b 798d 46bc 2afb f63c 8ad2 cb3b
000001b0: 391f a93c 72a7 d23c 925b 033d c6dd 903b
000001c0: d941 a13c 0616 0a3d e6c3 db3c 50e9 7e3b
000001d0: 0cff 09bd ac2a aa3c 6072 02bc 0383 663b
000001e0: 0883 c3ba 90a7 fd3a 5c90 553b 9d91 cf3a
000001f0: 8c51 38bb d6cf b63c 6a3c c63c 85f3 b0bc
00000200: 9521 3dbb dbe4 b83c e620 ed3c 3192 b8bc
00000210: b6d6 92bc 3752 053d 9d40 69bc f876 e13c
00000220: 279e 223c 1b4f e3bc c1d1 98bc 14ca 01bd
00000230: 4eae 603a 8ce3 16bc 33a0 e639 5e58 e8bc
00000240: ed7d 86bb 1370 ecbb 0924 9e3b 1d12 53bb
00000250: ffdd b1bc 4cc8 f73c 5261 3f3c acf2 0d3d
00000260: 95b7 d13c 4122 b7bc a8b8 113c fd77 15bc
00000270: ee05 c73c 9c6b fabc e776 f2bc f39f 0f3d
00000280: 36e1 063d 2e02 a3bc d5fc b8bc 81ae 3abb
00000290: 685e 31bc 3314 70bc e0ea 07bd 3574 73bc
000002a0: 3ccd e7bc 4d2b f8bc dbf9 c63c 5c7a 973b
000002b0: 6db8 b43c 56f3 093c b9b0 06bd 8060 0abb
000002c0: 0f3a cebc 613c d33c d201 b6bc e0b6 0a3d
000002d0: b64d 78bc ad63 293c 1e08 39bb 8f5a 453c
000002e0: 42af dbbc e76b a53b 9606 883b 77d1 973a
000002f0: 435b 843c ae68 71bb 8180 7ebc 8203 f4bc
00000300: 3d19 03bd 750a 083d 9640 2fbc 61ea 0abd
00000310: f8fd 473c a769 a4bc 6ad3 cebb 0282 8d3c
00000320: 9af2 dbbc 8234 ccbc f13e 5fbc b3e7 113d
00000330: 5c60 f5bc 8261 c4bc 1458 813c 957f e13a
00000340: 9f38 ff3c d489 9abc 026e 15bc 56f2 faba
00000350: d031 d9bc 76af 09bd 8aac f73c 51e2 8d3b
00000360: add0 3f3c 6b50 053d 90e5 db3c e9dd 9a3c
00000370: 9864 0b3d 199b c1bc ae05 7fbc 3540 a83c
00000380: 4fba dcbc 38e5 e8bb ca10 493c d6d5 853c
00000390: fdb6 12bd ad0f 90bc 3fa8 fdbc 45db 083d
000003a0: 869e dbbc ce97 02bc 09a6 d5bc d3b8 c63c
000003b0: 1e60 ac3c 32d6 abbb ad10 5ebc 21b1 e1bc
000003c0: 0043 03bd 2220 e43c 4e88 b0bc 41ca febc
000003d0: 7a7e a73c 50bf 403c 11ef d23c 8444 583c
000003e0: bb82 c3bc 83d4 0ebc 6a30 2a3c 75ce 1abb
000003f0: d55a f2bc d18e ddbb 021c bd3c 7f3f e53b
0.027746309 0.02487113 -0.01612563 -0.029972441 -0.0054962123 0.030022189 0.025995579 -0.031085536
-0.018485736 0.03383553 0.006828087 -0.023287805 0.007406142 -0.008693401 -0.018656118 0.022327546
-0.031828687 0.0012446797 0.008489852 -0.023176763 0.019669442 -0.016506359 -0.02898279 -0.018645603
0.0114655085 -0.010157896 -0.027118564 0.01075657 0.0030074702 -0.021079687 0.020992197 -0.0113105085
0.02890775 0.018943531 0.019453745 0.03157008 -0.0053527076 0.00789012 0.008438497 0.018199168
-0.0052551785 0.022057755 -0.0050003356 0.02093643 0.030885965 -0.024830872 -0.018869838 0.02689983
-0.022249216 -0.012110878 0.02239701 0.014838937 -0.032423705 0.032466367 0.0150639815 -0.02754949
0.00027072892 0.03671045 -0.027744034 0.01741671 0.010170809 0.005723896 0.032332983 0.012781056
-0.030153263 0.034965802 -0.008129455 0.0008442355 -0.006691871 0.016648414 0.0027603046 -0.010915262
0.020020299 -0.03364553 -0.02975649 0.030828733 0.020561092 0.024841527 0.030481853 -0.016411552
-0.0015752009 -0.002638716 0.0080202995 -0.006066741 0.01567429 -0.010897729 0.022437159 0.0025552073
-0.01376475 -0.024885282 -0.019117171 -0.010744479 -0.030813858 0.0003231637 -0.008441057 0.029112792
-0.018261502 -0.0124785835 0.004907424 -0.009552033 -0.03236554 -0.014403377 0.030054487 -0.020990662
0.006170561 -0.012118691 0.030149061 0.0062201666 0.020644771 0.02571461 0.03206975 0.0044209687
0.019684719 0.03371241 0.02682681 0.003889639 -0.033690497 0.0207723 -0.007961839 0.0035173304
-0.001491637 0.0019352306 0.0032587266 0.0015836243 -0.0028124778 0.0223159 0.02419873 -0.021600494
-0.0028859128 0.022570064 0.028946351 -0.022530647 -0.017924648 0.03254911 -0.014236596 0.027522549
0.009925402 -0.027747681 -0.018654706 -0.031686857 0.00085708953 -0.009209525 0.00043988376 -0.02836245
-0.004104367 -0.0072155087 0.004826073 -0.0032206841 -0.021712301 0.030246876 0.011680918 0.034655258
0.025600234 -0.0223552 0.008894123 -0.009122846 0.02429482 -0.03056889 -0.029597713 0.03506465
0.03292962 -0.0198985 -0.022581497 -0.002848536 -0.010825731 -0.014653253 -0.03318298 -0.014859249
-0.028296106 -0.030294085 0.024289062 0.0046227407 0.022060597 0.008419832 -0.03288338 -0.0021114647
-0.025174169 0.025785627 -0.022217665 0.03386581 -0.0151552465 0.010338706 -0.0028233598 0.012045517
-0.026816968 0.0050482634 0.0041511757 0.0011582811 0.016156798 -0.0036836076 -0.015533567 -0.029786829
-0.03200649 0.033213098 -0.010696551 -0.033914927 0.012206547 -0.02006991 -0.0063118236 0.017273907
-0.02684908 -0.024927381 -0.013625846 0.035621356 -0.029953174 -0.023972277 0.01578907 0.001720416
0.031154929 -0.01886455 -0.009120466 -0.0019145708 -0.02651301 -0.0336146 0.03023364 0.0043299575
0.011707467 0.032547396 0.026842862 0.018904643 0.03403148 -0.023633527 -0.015565319 0.020538429
-0.026944308 -0.007107403 0.012272069 0.016337316 -0.035819042 -0.0175856 -0.030964015 0.033412237
-0.026808988 -0.007970763 -0.026080148 0.024258053 0.021041926 -0.00524404 -0.0135537805 -0.027550282
-0.032046318 0.027847353 -0.02154937 -0.031102302 0.02044605 0.011764362 0.025748761 0.013199929
-0.023866048 -0.008717659 0.010387519 -0.0023621593 -0.029584328 -0.00676141 0.023084644 0.0069960947

weight f4 [10, 256]
00000000: f84e c8bd 6c6e 5fbd d837 ceba 8695 b23d
00000010: c6c2 69bd e451 a53d 3873 8d3d f538 d43d
00000020: cfc0 3abd f339 10bd 0e38 4b3d 2c5e 2cbd
00000030: 7af5 bbbc a2c0 d5bd a7ce ddbd 6cf6 65bb
00000040: 8818 1fbd ca2f ce3c dd49 093e 5dbd 933d
00000050: 922e 7a3d ea07 a3bd 7d6f de3d 01ca c7bb
00000060: a77f 81bd 0b65 b43c fac2 d63d 145b dfbc
00000070: 71b3 b8bd 9e1e 93bd 88e5 17bd 7a50 a4bd
00000080: 5080 cdbc 29ca 0e3d 8531 243d 1abb 763c
00000090: 7294 07bd 85ee 093e 5938 0c3d 8bfb 80bd
000000a0: 9588 c23c 0b5b 9b3c 23a3 f8bc 8492 5a3d
000000b0: 96ec 68bd 1e18 0ebd dc4a 58bc 7d28 29bd
000000c0: b550 233d ec2b c8bd 83ae ccbc b491 9fbc
000000d0: c8d4 1b3e e574 f73c 4383 1cbc a35e 3c3d
000000e0: 6f37 22be 7037 31bd b68f 84bc 6dea 793c
000000f0: a63c 3bbc 0f17 dc3b 8286 66bd 9bcc 4abc
00000100: 1352 a1bd ef7f c9bd 740d 95bc 7630 54bd
00000110: fa45 47bc e056 45bd 59ec e5bd 6232 07bd
00000120: f336 05bd 0b01 f0bc 57cc 97bc b911 65bd
00000130: 5d1f f8bc 3414 89bc 1864 dfbc b7f3 17bc
00000140: bcb3 35bc 47ac d03d 6ffc 533d 02aa d03d
00000150: 50e9 31ba e864 47bd da8e 39bd 6812 3fbd
00000160: 7f4b 7e3d f9a4 4e3d 473c 933c ae5b 8d3d
00000170: b8f4 f43c f460 a73d a2c5 7f3c fec9 81bd
00000180: ca4f 76bb 4ddc 8cbd c75f ce3a b2c7 1c3d
00000190: e286 97bb 5bc4 01bc 8965 17bd 3dea 9abd
000001a0: 1490 0fbd c9b4 e6bd dc90 b9bc 0cf5 5b3d
000001b0: cdd6 523d a9e1 053d c77e b5bc efe4 a23d
000001c0: 163d 433d bc18 45bd 6258 083d cb75 da3d
000001d0: 7a1f e2bc 2b77 6a3d bc8c 27be 6907 23bc
000001e0: ac88 8ebc 83d2 803d ca66 0fbd a6d9 203d
000001f0: ff06 203c 6e53 653d 1d8c 10bd 4543 ad3d
00000200: 3952 823c 20c3 9dbd 4b9e 283d b791 153d
00000210: da28 fb3c 57f8 82bc 85d4 9bbc 1df5 41bb
00000220: 8f58 5e3d dbb1 093d 6102 b93d a532 a53d
00000230: 3ca8 4cbd b1aa 543d 5c28 6d3c 5bd6 ab3c
00000240: 2a80 d03d 8ba9 d8bb 0d81 a3b9 8f9a 2abd
00000250: 6e44 a3bc 75fe 67bd 190e e2bd 31ba 0a3d
00000260: da30 333d 72ce 833d 29bd 03bd 1163 ffbd
00000270: 463d efbd cd41 8b3d 25a7 2fbd 667d 16bd
00000280: 2a03 0e3d 58fa 8e3d 7dba 2b3e 5cb5 ba3d
00000290: a2e4 773d fd5c 733d 758e 143d d792 273c
000002a0: 4159 d43c 6e26 3dba a3f9 0cbd 67c2 1a3d
000002b0: f661 74bc b96a 75bd 7d9d 473d ea62 323d
000002c0: 1d65 96bd bff7 6fbc ca45 783d ea45 213d
000002d0: 4a7c 36bd bb1a aebc 07a8 e23c f135 c93d
000002e0: 2b41 41bc 20e4 d33d 4636 713d 7b8f 51bd
000002f0: 132b 1e3c f978 c43a 5218 45bb 52df 003e
00000300: f9c7 0d3d 5692 dabd 3f97 cb3c 3a57 b1bc
00000310: 7aaa 523d 2fb0 ad3c 81be 023d dedd b73d
00000320: 17c7 30bd 2601 a0bc 523a 12bd 532a 933c
00000330: aa8a 0b3d 6306 1ebc 868e 063d 8ba7 d53d
00000340: e532 4ebd 77c8 8dbc 2c7d ea3d e4f5 6f3d
00000350: 4f9a acbc dd8d 4abd fe32 81bd 5c58 033c
00000360: c293 513c 6e32 4dbd 74e8 913d 3f77 e53c
00000370: 9f79 06bd 1c86 4038 9a2e 423c 70a2 87bc
00000380: d88d b33d b35f 873d 2066 273d 1e44 53bd
00000390: 5c51 8fbc 1379 da3b ff0f 88bd bfe5 bdbc
000003a0: 6c2f 3a3b 7787 a8bc 5ab8 b0bc 75a8 c3bd
000003b0: 1de0 943d acf1 aabd cf8c 2fbd 13a0 47bd
000003c0: 6f89 babc 330d 0e3c 44f0 a2bc 06ab 6cbc
000003d0: 5d35 d1bc f94a 9e3c dd40 6cbd 7fa8 4bbc
000003e0: caa7 4cbd 0b7e 073d 2eab c63d 6751 98bd
000003f0: 6d3f 04bd 9c27 b9bc c054 18be 38e5 9f3d
-0.09780687 -0.054548666 -0.0015733195 0.087199256 -0.057070516 0.0807226 0.06906742 0.10362426
-0.045594033 -0.035211515 0.049614005 -0.042081997 -0.0229442 -0.104371324 -0.108304314 -0.0035089506
-0.038841754 0.025169272 0.13407083 0.072138526 0.06107957 -0.07960494 0.108611085 -0.006097079
-0.06323176 0.022020837 0.104864076 -0.02726511 -0.09018601 -0.07183574 -0.037084132 -0.08023162
-0.025085598 0.034860764 0.040086288 0.015059257 -0.033100553 0.13469894 0.034233425 -0.06297978
0.023746768 0.018964311 -0.030351227 0.053362384 -0.05686625 -0.03469097 -0.013201442 -0.04129838
0.03987189 -0.097740024 -0.024985557 -0.019478656 0.15217888 0.030207107 -0.00955278 0.04598869
-0.15841459 -0.04326576 -0.016181808 0.015253645 -0.011428034 0.006716616 -0.05628062 -0.012377883
-0.078769825 -0.098388545 -0.018194892 -0.05180403 -0.01216268 -0.048178554 -0.1122672 -0.033007033
-0.032523107 -0.029297372 -0.018530054 -0.055925105 -0.030288393 -0.016733266 -0.027269408 -0.009274415
-0.011090215 0.10189109 0.05175441 0.101886764 -0.00067867804 -0.048680216 -0.04530225 -0.046648413
0.062083717 0.0504503 0.017973078 0.06902252 0.029901847 0.08172789 0.015611084 -0.06337355
-0.003758418 -0.068779565 0.0015745097 0.03827638 -0.0046242336 -0.00792035 -0.036962066 -0.07564209
-0.035049513 -0.11264951 -0.022652082 0.05370049 0.05147438 0.03268591 -0.022155179 0.07953822
0.047665678 -0.04811929 0.033287413 0.106669985 -0.0276029 0.057242554 -0.1636228 -0.009950497
-0.017399155 0.06290152 -0.035010137 0.039270066 0.009767293 0.055987768 -0.035289872 0.08460096
0.015908347 -0.07703233 0.041166585 0.036515918 0.030659128 -0.015987558 -0.019022236 -0.0029595562
0.054283675 0.03361688 0.09033657 0.080663 -0.04996513 0.051920597 0.014474954 0.020976236
0.10180695 -0.006612008 -0.00031185933 -0.041651305 -0.01993009 -0.056639154 -0.11037845 0.033868972
0.04374776 0.06435861 -0.03216282 -0.12470067 -0.11681609 0.0679966 -0.04288401 -0.036740683
0.034670986 0.06981343 0.16770358 0.09116623 0.060520776 0.059414852 0.03626867 0.01022788
0.025921466 -0.00072155043 -0.03441776 0.037783053 -0.014915934 -0.05991623 0.048734177 0.043551363
-0.073435046 -0.01464647 0.06061343 0.039373316 -0.044552125 -0.02125298 0.027668012 0.09824742
-0.011795322 0.10346246 0.05888965 -0.051162224 0.009653824 0.0014989666 -0.003007431 0.1258519
0.034614537 -0.106724426 0.024852393 -0.021648038 0.05143211 0.021202175 0.03191996 0.08977865
-0.043158617 -0.019531798 -0.03570015 0.017964518 0.034067787 -0.009645077 0.032850765 0.10432347
-0.050341506 -0.017307503 0.11449656 0.05858411 -0.021069674 -0.049451698 -0.06308554 0.008016672
0.012791576 -0.05009692 0.07124415 0.028010963 -0.03283083 4.5901266e-05 0.011851931 -0.016556948
0.08767289 0.0661005 0.04086888 -0.051578633 -0.01749485 0.006667265 -0.06643676 -0.02318084
0.0028409613 -0.020572407 -0.02157228 -0.09553615 0.07269309 -0.083468765 -0.042858895 -0.048736643
-0.022770612 0.008670139 -0.019889958 -0.014445072 -0.02553814 0.01932286 -0.057679046 -0.012430309
-0.049964704 0.03307919 0.09700619 -0.07437401 -0.03228705 -0.022601895 -0.1487608 0.07807392

bias f4 [10]
00000000: e2be 38bc 0c4b 0fbd e66f d73c 9e6a 94bc
00000010: 5976 c0bb 6c54 f8bc bc4f 5c3d 9ca1 ae3c
00000020: 99bb bb3c 877a 3bbd
-0.011275979 -0.03498368 0.026298475 -0.018117245 -0.005873483 -0.030313693 0.053786978 0.021317296
0.022916602 -0.045771148
